models/model.pt (torch, 311936 bytes, 40 tensors)

shared_layers.0.weight f4 [256, 115]
0.046152223 0.08715913 -0.07157431 -0.041070286 0.0005324156 0.061500568 -0.013642649 -0.118025854
0.031176575 -0.060282566 -0.02131126 -0.046455476 0.012800695 0.06455913 0.03359961 0.081195086
-0.012073379 0.05442344 0.011332624 -0.0044254973 -0.043827005 0.0129544865 -0.033128083 -0.052199546
0.09656216 0.08069228 -0.0691422 -0.056529168 -0.0020049058 -0.104274 -0.028037433 -0.07960134
0.0039096726 0.010118815 -0.09751741 0.045722965 0.051275417 -0.054899834 0.020447733 0.009266219
0.00086051214 0.068420656 -0.04551222 0.028833885 -0.068068236 0.10084223 -0.023556538 -0.040469646
-0.042947993 0.07034508 0.110516034 -0.06352761 0.09732484 0.035419587 0.07939058 -0.0516295
0.02088916 -0.091481425 0.07073438 0.029595125 0.033500742 -0.06526681 -0.060143076 0.061856467
0.09235884 0.0008875234 -0.0602911 -0.102383405 0.07467408 -0.057659745 0.08447032 -0.056921966
-0.005102123 -0.0045272065 -0.038904026 0.013002477 0.07937036 -0.025444204 0.037716128 0.03762116
-0.08414855 0.044231944 -0.02204759 -0.0656027 -0.008132558 0.044247225 0.045960482 0.049961943
0.053807743 0.09200699 -0.054912593 0.046194285 -0.053907767 -0.11050844 0.0122481305 -0.013625243
0.083711505 0.0124361105 0.0027580392 -0.02807056 0.07181494 0.018676355 0.020900277 -0.032538828
0.022013295 -0.03772425 -0.074008554 0.014043592 -0.016998228 0.04745291 -0.010256564 0.05999508
0.06677526 -0.07101921 -0.07473932 0.062387817 0.058405716 0.020279612 0.09179938 -0.02169602
0.030952072 0.015719485 -0.035124186 0.0084902 0.0341413 0.04385088 -0.010696879 0.075034745
-0.0068923826 0.091342 0.0168349 -0.065898255 0.055926364 0.08985949 -0.00635712 0.09410787
-0.04759769 -0.01763961 0.07473922 0.012194264 -0.08765365 0.023089748 -0.028706923 0.0697767
-0.05116107 0.023482054 -0.015538308 -0.055897776 0.05247793 -0.004485584 0.06340686 0.06025672
0.08073899 0.055653498 0.08101274 -0.02421524 0.036798924 -0.029292757 -0.0135508105 0.0057981517
-0.018475905 -0.012376567 -0.037158664 0.018422361 -0.022406736 -0.05990639 -0.12307575 -0.07694783
0.05242183 -0.09245512 -0.045230772 0.04174715 -0.041556053 0.013211765 -0.07166323 0.03523604
0.016249472 -0.07399205 -0.101051785 -0.061090373 0.091474734 0.076943405 0.09650095 0.07016855
0.068517834 -0.04379382 -0.0074757743 -0.01868605 0.09783288 -0.060363006 0.045307145 0.00071158266
0.09437369 -0.00907175 0.049662273 -0.082913324 -0.026246717 0.009145759 -0.094875544 0.076701514
-0.068737805 -0.054338243 0.06996566 0.110774726 -0.059881326 -0.03057196 0.071152344 -0.021264654
0.0034351859 0.019873252 -0.083416656 0.0005046569 -0.044318065 -0.08283774 0.030581584 -0.011336443
0.076067775 0.008491887 0.03821001 0.020950524 0.024385886 0.068170816 0.0694907 -0.09249249
0.083568685 0.0045717955 -0.051855244 0.061054684 -0.06613985 0.05406123 -0.0006453988 0.011413621
-0.054907862 -0.00642381 -0.02965962 0.025023747 0.09842632 0.08148393 -0.109865166 0.028593639
0.0011544371 -0.042500794 0.04056283 0.025331914 -0.07977316 -0.06266328 -0.0032783558 0.05513709
-0.09212538 -0.07103136 0.08580163 -0.036217503 0.055174854 -0.07763423 0.045013044 -0.010353492
00000000: 1d0a 3d3d 7c80 b23d 8d95 92bd 5139 28bd
00000010: ce91 0b3a 05e8 7b3d 6b85 5fbc 8ab7 f1bd
00000020: 0466 ff3c daea 76bd f494 aebc 1948 3ebd
00000030: 02ba 513c 9437 843d bf9f 093d 9c49 a63d
00000040: 6ccf 45bc 1deb 5e3d 78ac 393c c303 91bb
00000050: f283 33bd 0e3f 543c 50b1 07bd 31cf 55bd
00000060: 62c2 c53d fe41 a53d 6d9a 8dbd 218b 67bd
00000070: bd64 03bb 9b8d d5bd c2ae e5bc 0706 a3bd
00000080: b61c 803b 63c9 253c 35b7 c7bd 0148 3b3d
00000090: 2c06 523d a6de 60bd 0182 a73c 57d1 173c
000000a0: fe93 613a 2120 8c3d 066b 3abd 0a35 ec3c
000000b0: 5c67 8bbd 5f86 ce3d a4f9 c0bc 80c3 25bd
000000c0: 3cea 2fbd 1511 903d 3b56 e23d c31a 82bd
000000d0: 3f52 c73d 2114 113d 8797 a23d 7479 53bd
000000e0: be1f ab3c 9d5a bbbd 30dd 903d 7a71 f23c
000000f0: 1338 093d 9baa 85bd 9658 76bd 355d 7d3d
00000100: a226 bd3d b0a8 683a cdf3 76bd 64ae d1bd
00000110: b9ee 983d a02c 6cbd c6fe ac3d 0227 69bd
00000120: b62f a7bb f658 94bb d459 1fbd 5708 553c
00000130: ed8c a23d 5d70 d0bc 3a7c 1a3d a518 1a3d
00000140: 1356 acbd 8e2c 353d 269d b4bc b55a 86bd
00000150: 6c3e 05bc 943c 353d 0f41 3c3d e5a4 4c3d
00000160: 8265 5c3d 296e bc3d 07ec 60bd 3836 3d3d
00000170: 64ce 5cbd 4052 e2bd 62ac 483c 693c 5fbc
00000180: f070 ab3d d4c0 4b3c 38c0 343b 3bf4 e5bc
00000190: b613 933d 28ff 983c 0f37 ab3c 6f47 05bd
000001a0: 3a55 b43c be84 1abd cc91 97bd 1817 663c
000001b0: de3f 8bbc fc5d 423d 260b 28bc 67bd 753d
000001c0: 78c1 883d 8572 91bd ee10 99bd 5e8a 7f3d
000001d0: d53a 6f3d 6e21 a63c 5001 bc3d dabb b1bc
000001e0: 338f fd3c 26c6 803c 61de 0fbd 7b1a 0b3c
000001f0: bfd7 0b3d fb9c 333d f641 2fbc d1ab 993d
00000200: 7fd9 e1bb 8411 bb3d 58e9 893c aaf5 86bd
00000210: 0b13 653d 4108 b83d 634f d0bb a0bb c03d
00000220: ccf5 42bd f280 90bc e010 993d 73ca 473c
00000230: c283 b3bd b626 bd3c c82a ebbc 16e7 8e3d
00000240: 458e 51bd 705d c03c 6394 7ebc 11f5 64bd
00000250: 19f3 563d cefb 92bb 75db 813d c0cf 763d
00000260: 7c5a a53d ecf4 633d 02ea a53d 0a5f c6bc
00000270: 78ba 163d 5df7 efbc 3804 5ebc 6cfe bd3b
00000280: c85a 97bc 16c7 4abc af33 18bd 7eea 963c
00000290: 558e b7bc 6760 75bd 240f fcbd d396 9dbd
000002a0: 46b8 563d 1c59 bdbd e743 39bd 0fff 2a3d
000002b0: ae36 2abd 2976 583c 2cc4 92bd aa53 103d
000002c0: 9d1d 853c 2589 97bd 3df4 cebd e639 7abd
000002d0: 1b57 bb3d 8194 9d3d 4aa2 c53d 87b4 8f3d
000002e0: 1453 8c3d 2661 33bd 57f7 f4bb 7d13 99bc
000002f0: 9b5c c83d 333f 77bd fc93 393d 8189 3a3a
00000300: fe46 c13d ada1 14bc ab6a 4b3d 76ce a9bd
00000310: 5b03 d7bc 18d8 153c 1c4e c2bd af15 9d3d
00000320: 68c6 8cbd c791 5ebd 284a 8f3d dcdd e23d
00000330: 1f46 75bd 0c72 fabc 52b8 913d 3633 aebc
00000340: db20 613b 3bcd a23c 5ad6 aabd f44a 043a
00000350: dc86 35bd d5a6 a9bd 3b86 fa3c 7dbc 39bc
00000360: 6cc9 9b3d 8e21 0b3c 1982 1c3d 6fa0 ab3c
00000370: e9c4 c73c 249d 8b3d 2451 8e3d b46c bdbd
00000380: 0f26 ab3d 00cf 953b 2a66 54bd 7a14 7a3d
00000390: 5474 87bd 4f6f 5d3d fb2f 29ba 3200 3b3c
000003a0: 11e7 60bd d37e d2bb bbf8 f2bc 9afe cc3c
000003b0: bd93 c93d 0ce1 a63d fd00 e1bd 353d ea3c
000003c0: 7b50 973a 5015 2ebd 3625 263d e084 cf3c
000003d0: 1c60 a3bd 9b55 80bd afd9 56bb 6ed7 613d
000003e0: 3bac bcbd e478 91bd c4b8 af3d ce58 14bd
000003f0: 07ff 613d b2fe 9ebd 995f 383d b1a1 29bc

shared_layers.0.bias f4 [256]
-0.0006637025 0.02263921 -0.096454136 -0.07216275 -0.035372175 -0.07397593 -0.06272238 -0.047121923
-0.08785918 -0.010037626 -0.061711106 0.058399975 -0.004438594 -0.06677497 0.015053531 0.045864772
0.007271956 -0.060804363 -0.07307128 0.030834459 0.030063696 -0.073087424 -0.09363998 0.02346854
0.043452963 -0.06315676 0.060190078 0.013258911 0.083956964 -0.058387294 -0.08434546 0.0071308874
0.02605968 0.019585786 0.03854067 0.07120406 0.09115632 -0.026572501 0.006613148 -0.014736027
0.085392214 -0.0075486246 0.02243192 -0.066845894 0.01682024 -0.08267415 0.024286175 -0.06602833
-0.04307675 0.053231146 -0.051655833 -0.037759736 0.01274277 -0.0441793 0.035162907 -0.053248703
0.08983638 0.03411171 -0.07951683 -0.017903835 0.08503909 -0.006977668 0.07739686 -0.028292172
-0.04008679 0.07963457 -0.009079403 0.029561672 0.0068556378 0.019029627 -0.0039386074 0.02687245
-0.06762768 -0.03092018 0.017742017 -0.050902527 -0.045476362 -0.024516443 -0.014662052 -0.021794526
-0.05681584 0.081004895 0.04276715 -0.10254885 -0.046015665 -0.025305223 -0.022262298 0.075700365
0.05287586 -0.0755425 -0.007140472 0.0594209 0.033796337 -0.0045911437 -0.057158247 0.08980121
0.053537954 0.060303375 -0.028708184 -0.029002516 -0.01882561 0.036459193 -0.015460242 -0.0958579
0.010139724 -0.09169959 0.0402567 -0.023595497 0.007714439 -0.03797829 0.0070780623 -0.030379064
-0.06555368 0.030897371 0.03622925 -0.0794771 0.001617739 0.027483003 0.06722133 -0.034177355
-0.015024311 0.017853979 0.010399887 -0.028515307 0.06292789 0.079015285 -0.019174123 -0.08112326
0.058864214 -0.020790964 0.030270522 -0.033283286 0.06327206 -0.0074030356 -0.08321521 -0.010575583
0.0620439 -0.046559144 -0.016372947 0.074787624 0.023711491 -0.07653323 0.057663765 -0.016671704
0.03530564 -0.057889324 -0.053044844 0.035239317 -0.10261382 0.09065967 -0.044363506 0.004152011
0.056263193 0.05235618 0.035974566 0.054224197 -0.062815845 0.065511465 0.07550819 -0.053237326
-0.0011194908 0.06624275 0.0252516 0.056234088 -0.052184682 0.066594414 -0.044672668 0.05950778
0.092324875 0.027031703 -0.07800377 -0.056706488 0.06328098 0.014568469 -0.057861455 0.07778441
0.028010858 0.0124439625 0.080306835 -0.042898104 -0.038776096 0.008921141 -0.055259716 -0.02517716
-0.092307106 -0.06368888 0.014035991 -0.021891758 0.0043060286 -0.053969856 0.043219455 -0.0784503
0.002596347 -0.00030595355 -0.05455102 0.046886694 0.024550198 -0.064131595 -0.018818911 -0.01886946
-0.08978112 0.044320934 0.027034748 0.057297852 0.015503052 -0.008111857 0.019124394 0.06913005
-0.0645312 0.06658647 0.08669473 0.0025726927 0.06907051 0.021568287 -0.027653828 -0.00860455
0.05777485 0.051112328 0.08104362 -0.047648374 0.031001255 0.067155115 -0.08550474 -0.031191736
-0.0036756352 0.048570253 0.013999057 -0.003544922 0.07286076 0.08266224 -0.025559599 0.0055002267
0.004341151 -0.011003838 -0.032121252 -0.075008474 -0.0001993191 -0.10603452 -0.03850019 -0.05796061
-0.07076701 0.023282362 -0.069010176 -0.016231176 0.08388338 -0.06675836 0.094142325 0.04770624
0.05353779 -0.025924362 0.018646201 -0.091192774 0.01538704 0.03409878 0.04574185 0.059682127
00000000: 52fc 2dba dd75 b93c bf89 c5bd 10ca 93bd
00000010: 6ae2 10bd b180 97bd 9774 80bd eb02 41bd
00000020: 84ef b3bd db74 24bc c9c4 7cbd d034 6f3d
00000030: a071 91bb 51c1 88bd 16a3 763c b3dc 3b3d
00000040: 9749 ee3b ff0d 79bd 65a6 95bd 8c98 fc3c
00000050: 2448 f63c dcae 95bd 51c6 bfbd 1841 c03c
00000060: bcfb 313d 5558 81bd df89 763d e73b 593c
00000070: a1f1 ab3d 8427 6fbd 50bd acbd 38aa e93b
00000080: 1c7b d53c 5f72 a03c d2dc 1d3d 6fd3 913d
00000090: 2ab0 ba3d 93ae d9bc 1bb3 d83b 616f 71bc
000000a0: 1de2 ae3d 745a f7bb 25c3 b73c 80e6 88bd
000000b0: 9aca 893c 1151 a9bd cdf3 c63c dc39 87bd
000000c0: 3f71 30bd e708 5a3d 1195 53bd f4a9 1abd
000000d0: 0dc7 503c 5bf5 34bd fb06 103d 501b 5abd
000000e0: 23fc b73d b8b8 0b3d b8d9 a2bd 10ab 92bc
000000f0: f928 ae3d eca4 e4bb 3f82 9e3d fcc4 e7bc
00000100: 0c32 24bd 7317 a33d c7c1 14bc 522b f23c
00000110: 42a5 e03b 05e4 9b3c 6f0f 81bb 9d23 dc3c
00000120: 6280 8abd 514c fdbc b557 913c 2b7f 50bd
00000130: 6c45 3abd b5d6 c8bc 1a39 70bc 6f8a b2bc
00000140: bab7 68bd e5e5 a53d 9b2c 2f3d 2205 d2bd
00000150: ec7a 3cbd e64c cfbc 6c5f b6bc cb08 9b3d
00000160: 5c94 583d 07b6 9abd 9ffa e9bb 5463 733d
00000170: 076e 0a3d 4e71 96bb c41e 6abd b2e9 b73d
00000180: 9d4a 5b3d ac00 773d 6d2d ebbc af96 edbc
00000190: 2a38 9abc 3c56 153d f44c 7dbc 2651 c4bd
000001a0: 1621 263c ffcc bbbd 36e4 243d 584b c1bc
000001b0: 68c9 fc3b 208f 1bbd 17ef e73b 84dd f8bc
000001c0: 0241 86bd 7c1c fd3c 1f65 143d e4c4 a2bd
000001d0: 500a d43a 0924 e13c 56ab 893d 8efd 0bbd
000001e0: 8728 76bc 8242 923c 4a64 2a3c ef98 e9bc
000001f0: 56e0 803d c4d2 a13d 0d13 9dbc f423 a6bd
00000200: 9a1b 713d d051 aabc e3f9 f73c 0e54 08bd
00000210: c894 813d 2a95 f2bb bc6c aabd 3645 2dbc
00000220: bf21 7e3d cdb4 3ebd 8f20 86bc 412a 993d
00000230: 9a3e c23c 74bd 9cbd d730 6c3d 1993 88bc
00000240: a69c 103d 5b1d 6dbd 8d45 59bd 1a57 103d
00000250: 3227 d2bd c7ab b93d 82b6 35bd 980d 883b
00000260: 3c74 663d 6f73 563d 115a 133d 311a 5e3d
00000270: 98a5 80bd e02a 863d 0aa4 9a3d 620f 5abd
00000280: e1bb 92ba 47aa 873d 72dc ce3c b755 663d
00000290: 9bbf 55bd a762 883d b0fa 36bd 6ebe 733d
000002a0: d314 bd3d 9771 dd3c 71c0 9fbd 1045 68bd
000002b0: 7599 813d 96b0 6e3c 2200 6dbd 6f4d 9f3d
000002c0: 0777 e53c c3e1 4b3c e977 a43d ecb5 2fbd
000002d0: afd3 1ebd fa29 123c 0358 62bd 5540 cebc
000002e0: 820b bdbd 516f 82bd 37f7 653c 5856 b3bc
000002f0: 9619 8d3b 7f0f 5dbd e206 313d 8daa a0bd
00000300: 7927 2a3b 6468 a0b9 e470 5fbd 430c 403d
00000310: 7f1d c93c 6d57 83bd 1e2a 9abc 2094 9abc
00000320: 2adf b7bd de89 353d fa77 dd3c 27b1 6a3d
00000330: 8300 7e3c 98e7 04bc c3aa 9c3c 0e94 8d3d
00000340: ef28 84bd 7d5e 883d 028d b13d 9f9a 283b
00000350: d774 8d3d faaf b03c 488a e2bc 19fa 0cbc
00000360: 52a5 6c3d 295b 513d 33fa a53d f12a 43bd
00000370: 58f6 fd3c 9f88 893d 1c1d afbd d085 ffbc
00000380: ede2 70bb 9af1 463d 4d5c 653c ec51 68bb
00000390: 0638 953d d24a a93d 5d62 d1bc 3f3b b43b
000003a0: 3740 8e3b 7149 34bc 9391 03bd 0b9e 99bd
000003b0: 5000 51b9 a028 d9bd 60b2 1dbd 1b68 6dbd
000003c0: 4bee 90bd a7ba be3c 3555 8dbd 3ef7 84bc
000003d0: 0dcb ab3d 9bb8 88bd b1cd c03d 9e67 433d
000003e0: 714a 5b3d 545f d4bc ebbf 983c 47c3 babd
000003f0: ec19 7c3c 2aab 0b3d ce5b 3b3d 3f75 743d

shared_layers.1.weight f4 [256]
1.0218639 1.0024966 1.0096941 0.97877425 0.9993718 1.0024363 1.0253912 1.0090554
0.96661794 1.0052046 1.0107725 0.99439585 1.0075723 0.98541045 0.9921018 1.0147961
0.9978395 1.0182178 0.9880043 1.0454702 0.99131376 1.0091008 0.97317404 0.96391624
0.9634957 0.97961473 0.9867003 0.9978161 1.010718 0.9943608 0.98805547 0.9767543
0.9956909 0.97196305 1.0034412 0.98442084 1.0092771 0.9840451 0.97780186 1.0128949
0.98035884 1.0397379 0.97307605 1.0021063 0.9866561 1.020003 1.0104265 0.98517996
0.99260724 0.972159 1.0218709 1.0074129 0.9742378 0.99177766 0.97814614 0.9849026
0.99927384 0.99452394 1.0030829 1.0005059 1.0244726 1.0144795 0.96697366 0.9923261
0.9854384 0.9907205 1.0204661 0.9733534 1.0248361 0.98639125 1.0127203 0.9740318
1.0283054 1.04536 1.0029669 1.0442846 1.0022836 0.9689443 1.0053669 0.98593205
1.0371453 0.9821312 0.9798294 0.98222005 0.9609226 1.0162537 0.9999584 1.0133073
1.0333713 0.98824877 0.99842024 0.9634465 1.0462546 1.0327586 0.98624593 1.03517
0.98047304 1.0048611 0.9939322 0.97031426 0.98757046 0.98515224 1.0152847 0.996371
1.0092086 0.9893725 0.9844973 0.9798916 1.021387 0.9941695 1.0157719 1.0354625
1.0120357 1.0357522 1.0113332 1.0034266 0.97094744 0.9912788 1.0167173 1.0329975
1.0159153 1.0240008 1.0098104 1.0079578 1.0158032 1.029572 1.0186625 1.0230154
1.0052571 0.9831175 0.99225956 1.0266379 1.0005031 1.018248 0.9615406 1.0138534
0.99323666 0.95994 0.9674012 0.9784284 0.9837565 0.99593264 0.96886504 0.9870814
1.0275564 1.0105299 1.0111321 0.9841847 0.9828777 1.0076796 1.0261374 0.98084635
1.0496299 1.0224532 0.9873572 0.98250407 1.0374011 0.9919845 0.99152744 1.0192522
0.9964454 1.0238028 1.0070995 0.9962014 1.0140127 0.9997813 0.9733901 0.9516805
1.0248047 1.0165191 1.0201252 0.9973431 1.0281497 0.98006505 0.9646396 0.99396205
1.050612 0.9693844 1.020092 1.0341718 1.0134114 1.0209246 0.98375225 1.0106264
0.98959243 0.9829674 0.9707795 0.98774904 1.025549 0.99910384 1.0283375 0.9599278
0.9986952 1.0023714 0.96700853 0.9799285 1.0037718 1.0134712 0.9897791 1.0215986
1.0217648 0.99263793 1.0085857 1.0031018 1.0008247 1.0245711 1.003398 0.96606964
0.9894595 1.0535777 0.95469224 1.0067072 0.9950256 1.0126698 1.0261127 0.97511065
0.98161256 0.9618357 1.0001107 1.0178951 0.95395315 1.0170447 0.97627807 0.98693764
0.9677464 0.99448085 0.9755335 1.0240234 1.0111532 0.98415166 1.0061241 0.96157867
0.99737287 1.0345161 1.0087034 0.99801654 1.0002482 1.0359986 1.0258971 1.0334408
1.0007426 1.0329951 0.9604345 1.0386655 0.98958796 1.0067196 0.9975543 1.0209948
1.0253091 0.95561457 0.99224627 0.9823038 0.98977506 1.0030885 0.9883775 1.0354761
00000000: 70cc 823f cf51 803f a83d 813f f390 7a3f
00000010: d5d6 7f3f d54f 803f 0540 833f ba28 813f
00000020: 4674 773f 8baa 803f fe60 813f ba90 7e3f
00000030: 21f8 803f dc43 7c3f 62fa 7d3f d7e4 813f
00000040: 6972 7f3f f654 823f daed 7c3f f8d1 853f
00000050: bdc6 7d3f 372a 813f ef21 793f 37c3 763f
00000060: a7a7 763f 08c8 7a3f 6498 7c3f e070 7f3f
00000070: 355f 813f 6e8e 7e3f 34f1 7c3f 920c 7a3f
00000080: 99e5 7e3f 92d2 783f c370 803f 0103 7c3f
00000090: fe2f 813f 61ea 7b3f 3951 7a3f 8aa6 813f
000000a0: ccf8 7a3f 2216 853f 831b 793f 0545 803f
000000b0: 7f95 7c3f 758f 823f a855 813f c134 7c3f
000000c0: 821b 7e3f 6adf 783f aacc 823f e8f2 803f
000000d0: a667 793f 24e5 7d3f c967 7a3f 9422 7c3f
000000e0: 69d0 7f3f 1f99 7e3f 0565 803f 9410 803f
000000f0: eb21 833f 77da 813f 968b 773f 1509 7e3f
00000100: b145 7c3f dc9f 7d3f a29e 823f b02d 793f
00000110: d42d 833f 2384 7c3f d2a0 813f 265a 793f
00000120: 839f 833f 5bce 853f 3861 803f 1eab 853f
00000130: d44a 803f bc0c 783f ddaf 803f 0b66 7c3f
00000140: 2dc1 843f f36c 7b3f 19d6 7a3f c672 7b3f
00000150: 06ff 753f 9a14 823f 46fd 7f3f 0eb4 813f
00000160: 8345 843f dffd 7c3f 7898 7f3f 6ea4 763f
00000170: aceb 853f 6f31 843f 9d7a 7c3f 7380 843f
00000180: 4800 7b3f 4a9f 803f 5772 7e3f 8466 783f
00000190: 6bd1 7c3f f032 7c3f d9f4 813f 2b12 7f3f
000001a0: bf2d 813f 8447 7d3f 0408 7c3f 2dda 7a3f
000001b0: cfbc 823f e481 7e3f d004 823f 098a 843f
000001c0: 638a 813f 8793 843f 5e73 813f 4870 803f
000001d0: 0390 783f 73c4 7d3f cb23 823f 4339 843f
000001e0: 8309 823f 7512 833f 7841 813f c304 813f
000001f0: d705 823f 04c9 833f 8863 823f 2bf2 823f
00000200: 44ac 803f 97ad 7b3f b904 7e3f df68 833f
00000210: 7c10 803f f355 823f 8627 763f f3c5 813f
00000220: c244 7e3f a1be 753f 9ba7 773f 497a 7a3f
00000230: 77d7 7b3f 71f5 7e3f 8a07 783f 5eb1 7c3f
00000240: f886 833f 0b59 813f c76c 813f 87f3 7b3f
00000250: df9d 7b3f a5fb 803f 7858 833f bf18 7b3f
00000260: 465a 863f bfdf 823f 71c3 7c3f 6385 7b3f
00000270: 8fc9 843f b2f2 7d3f bed4 7d3f db76 823f
00000280: 0c17 7f3f f80b 833f a3e8 803f 0e07 7f3f
00000290: 2bcb 813f abf1 7f3f 1830 793f 55a1 733f
000002a0: cd2c 833f 4c1d 823f 7693 823f e151 7f3f
000002b0: 699a 833f 8be5 7a3f 9ff2 763f 4c74 7e3f
000002c0: 747a 863f 9329 783f 6092 823f be5f 843f
000002d0: 77b7 813f a8ad 823f 30d7 7b3f 355c 813f
000002e0: ee55 7d3f c0a3 7b3f 0185 783f 1fdd 7c3f
000002f0: 3145 833f 45c5 7f3f 90a0 833f d4bd 753f
00000300: 7daa 7f3f b54d 803f df8d 773f 98dc 7a3f
00000310: 987b 803f 6db9 813f 2a62 7d3f bec3 823f
00000320: 30c9 823f 851d 7e3f 5619 813f a465 803f
00000330: 061b 803f 2525 833f 586f 803f 5750 773f
00000340: 384d 7d3f a2db 863f b666 743f c8db 803f
00000350: ffb9 7e3f 2a9f 813f a957 833f daa0 793f
00000360: f64a 7b3f dd3a 763f a103 803f 634a 823f
00000370: 4636 743f 852e 823f 5ced 793f f2a7 7c3f
00000380: 3abe 773f 4c96 7e3f 90bc 793f 3313 833f
00000390: 786d 813f 5df1 7b3f adc8 803f 052a 763f
000003a0: d453 7f3f 066b 843f 311d 813f 037e 7f3f
000003b0: 2208 803f 9a9b 843f 9950 833f ca47 843f
000003c0: 5518 803f 2f39 843f 09df 753f fef2 843f
000003d0: a355 7d3f 30dc 803f b85f 7f3f f5af 823f
000003e0: 543d 833f 28a3 743f da03 7e3f 4378 7b3f
000003f0: e661 7d3f 3465 803f 4f06 7d3f 7b8a 843f

shared_layers.1.bias f4 [256]
0.016729426 -0.024305109 0.015676677 -0.020241871 -0.007702582 0.0075445296 -0.0037660091 0.026169917
-0.03887815 -0.019168962 0.008815525 -0.016320338 0.012711131 -0.034921873 0.020221626 0.01687314
-0.004034982 0.0067540873 -0.005923983 0.039077338 -0.0004960116 0.012047549 -0.011859422 -0.031597096
-0.019021401 0.0063665705 -0.02412092 0.03219685 0.016914897 -0.027067453 -0.017730394 8.814878e-05
-0.0055058077 -0.009971856 -0.0022312815 -0.003178628 -0.0049984995 -0.016038101 -0.0106316125 0.016104896
-0.01501273 0.009172588 0.0033177515 0.021800952 -0.017930007 0.0086627295 -0.016985368 -0.00416103
0.013949321 -0.03223182 0.004396071 -0.012198856 -0.016592646 -0.012363643 -0.0011857108 -0.029249132
0.018453922 -0.002768165 -0.003149934 0.018834308 0.03472556 0.019128371 -0.03756103 0.022498103
-0.01890897 -0.014304192 0.041664172 -0.026070839 0.017614314 -0.008560916 0.008961513 -0.009402136
0.03789554 0.044765577 -0.00039327578 0.011355445 0.0012980013 -0.030291526 0.013591235 -0.010517436
0.02850146 0.0032180406 -0.0029037925 -0.0059931935 -0.022008862 0.014953583 -0.002648406 -0.0135649545
0.0392631 -0.03306694 -0.010063183 -0.033584487 0.03116388 0.004316419 -0.017942607 0.045169517
0.0014981783 0.03043013 -0.03513901 -0.012326933 0.010539671 0.015139759 0.017803274 0.019598626
-0.0064429273 -0.0101348255 -0.04185424 -0.0338247 0.0148758665 0.00389373 0.009943121 0.013693367
0.0072294557 0.037026316 0.009487282 0.0009563942 -0.025111055 -0.020979948 0.02165825 0.020246794
0.023666633 0.042278454 0.009645164 -0.01813834 0.0028693737 0.002193321 -0.010143635 0.014414495
-0.01364537 -0.006535394 -0.011858139 0.0014275286 -0.0051001837 0.016341487 -0.024996843 -0.0005580923
-0.027776293 -0.019317554 -0.028095702 -0.02291984 6.4940425e-05 -0.0073418845 -0.016938059 0.0067762467
0.030176759 0.02432355 0.009610199 -0.008709561 -0.031052748 0.00929227 -0.0040334007 -0.009202043
0.013142468 0.0038115073 -0.024483409 -0.036210716 0.004839179 -0.00381316 -0.008163891 0.018545076
-0.031484332 0.030638864 0.005683821 0.0122995805 0.011255571 -0.022148665 -0.0066395556 -0.038911164
0.052663825 -0.0053291908 0.015461166 0.023353796 0.034890585 -0.019814119 -0.04022713 -0.0056665186
0.039132915 -0.009088795 0.009047601 0.016695982 0.010953771 0.004865985 0.000843796 0.014725749
-0.01724754 0.0030495203 -0.018677605 0.0020055766 -0.004965581 0.024602195 0.02679115 -0.026742114
-0.0016800857 0.0016816666 -0.019793935 -0.023377968 0.014190502 0.027847929 -0.01792605 0.02525513
0.0068070865 0.0014749794 -0.013583795 -0.0061422456 0.0101354495 0.043754645 0.012469582 -0.018043602
0.0010651726 0.05305653 -0.016497552 -0.006372414 0.023384776 0.027170723 0.0190486 -0.0046001086
-0.0017521683 -0.029185196 0.0033048699 0.016084742 -0.064499795 0.0050199004 -0.010459051 -0.009311804
-0.021318689 -0.015015086 -0.0072530694 0.0210371 0.025879433 -0.009860816 0.022608554 -0.013753318
0.015804652 -0.009647963 0.009097138 0.001248218 0.018435951 0.03561232 -0.021988587 0.02949822
0.03996992 0.02519529 -0.014550123 0.0054932833 0.012757401 0.016464813 -0.01959347 0.03860815
0.017121023 -0.05593544 0.012199454 -0.023056246 -0.009083874 0.010104834 0.006343371 0.038316745
00000000: 260c 893c 821b c7bc 606c 803c 48d2 a5bc
00000010: f165 fcbb 1a38 f73b 26cf 76bb 4b62 d63c
00000020: b23e 1fbd 3a08 9dbc fe6e 103c 3bb2 85bc
00000030: 5942 503c 3d0a 0fbd d3a7 a53c 8a39 8a3c
00000040: e237 84bb 6451 dd3b f91d c2bb 8f0f 203d
00000050: c606 02ba 1563 453c 054e 42bc f56b 01bd
00000060: c5d2 9bbc aa9e d03b 3c99 c5bc d8e0 033d
00000070: 1c91 8a3c 90bc ddbc 553f 91bc 84dc b838
00000080: 106a b4bb ff60 23bc b13a 12bb 8750 50bb
00000090: 74ca a3bb 5662 83bc 3730 2ebc 6aee 833c
000000a0: f4f7 75bc 9f48 163c a26e 593b e997 b23c
000000b0: f3e1 92bc 1fee 0d3c e624 8bbc 4059 88bb
000000c0: b18b 643c 8305 04bd eb0c 903b b6dd 47bc
000000d0: 4ded 87bc e190 4abc da69 9bba e09b efbc
000000e0: ae2c 973c 1a6a 35bb 206f 4ebb 684a 9a3c
000000f0: 643c 0e3d 1ab3 9c3c 98d9 19bd f14d b83c
00000100: fce6 9abc 215c 6abc 0da8 2a3d 8392 d5bc
00000110: e54b 903c 1643 0cbc 4fd3 123c 6b0b 1abc
00000120: 5b38 1b3d 1c5c 373d 9530 ceb9 300c 3a3c
00000130: b221 aa3a ef25 f8bc c5ad 5e3c 5351 2cbc
00000140: e57b e93c c3e5 523b 8e4d 3ebb 8d62 c4bb
00000150: ee4b b4bc dfff 743c e190 2dbb 8b3f 5ebc
00000160: 58d2 203d 3371 07bd 0ce0 24bc e38f 09bd
00000170: 654b ff3c bf70 8d3b 60fc 92bc ac03 393d
00000180: 865e c43a 9c48 f93c eced 0fbd e8f6 49bc
00000190: 96ae 2c3c c00c 783c 2cd8 913c 4c8d a03c
000001a0: 311f d3bb 8a0c 26bc 5a6f 2bbd c58b 0abd
000001b0: e8b9 733c f32d 7f3b 79e8 223c 255a 603c
000001c0: 12e5 ec3b e8a8 173d 8b70 1b3c 87b6 7a3a
000001d0: b3b5 cdbc 24de abbc a46c b13c 9bdc a53c
000001e0: 87e0 c13c 2c2c 2d3d c006 1e3c db96 94bc
000001f0: 1a0c 3c3b d2bd 0f3b 7d31 26bc c62a 6c3c
00000200: d490 5fbc dc26 d6bb a448 42bc e91b bb3a
00000210: 711f a7bb 95de 853c 2ec6 ccbc f14c 12ba
00000220: 1c8b e3bc d93f 9ebc f528 e6bc 63c2 bbbc
00000230: a030 8838 3194 f0bb afc1 8abc 470b de3b
00000240: 4035 f73c 2e42 c73c 1974 1d3c 8cb2 0ebc
00000250: 5562 febc 9b3e 183c 9e2a 84bb 2ac4 16bc
00000260: 8253 573c 7bca 793b 6e91 c8bc b051 14bd
00000270: fa91 9e3b 35e6 79bb d7c1 05bc d8eb 973c
00000280: b7f5 00bd 5bfe fa3c 593f ba3b 2e84 493c
00000290: 4969 383c 1e71 b5bc a190 d9bb 5061 1fbd
000002a0: 06b6 573d 7ea0 aebb d550 7d3c 7650 bf3c
000002b0: 6ee9 0e3d 3851 a2bc 34c5 24bd 34ae b9bb
000002c0: d649 203d 2be9 14bc 643c 143c 03c6 883c
000002d0: 7277 333c d772 9f3b 3132 5d3a 4544 713c
000002e0: b74a 8dbc 76da 473b c701 99bc fe6f 033b
000002f0: 50b6 a2bb 8b8a c93c 1d79 db3c 4712 dbbc
00000300: 5236 dcba 5e6b dc3a e426 a2bc 2783 bfbc
00000310: 487f 683c 5721 e43c a7d9 92bc d9e3 ce3c
00000320: fb0d df3b 1954 c13a 918e 5ebc e444 c9bb
00000330: 280f 263c 1238 333d 384d 4c3c 2dd0 93bc
00000340: 439d 8b3a ce51 593d e025 87bc afcf d0bb
00000350: 6e91 bf3c 2395 de3c cf0b 9c3c 82bc 96bb
00000360: 03a9 e5ba cb15 efbc 8496 583b 26c4 833c
00000370: 7818 84bd fa7d a43b 705c 2bbc 8990 18bc
00000380: 88a4 aebc d601 76bc 28ab edbb ff55 ac3c
00000390: 1b01 d43c 438f 21bc 9335 b93c 9955 61bc
000003a0: c278 813c 7d12 1ebc 2a0c 153c 3f9b a33a
000003b0: fe06 973c 39de 113d 6921 b4bc 40a6 f13c
000003c0: 80b7 233d 5a66 ce3c a463 6ebc 0001 b43b
000003d0: 6b04 513c 37e1 863c 7c82 a0bc 9423 1e3d
000003e0: 6341 8c3c 8f1c 65bd 38e0 473c 74e0 bcbc
000003f0: 87d4 14bc bf8e 253c 0ddc cf3b 05f2 1c3d

shared_layers.1.running_mean f4 [256]
0.0064209653 0.08950531 -0.12637232 -0.0770558 0.025076123 -0.022165816 -0.026246298 -0.06290124
-0.047077257 0.038078245 -0.05910593 0.059576154 0.014780466 -0.006946483 -0.016506625 -0.059257887
-0.040173247 -0.08316652 -0.1431917 0.08862972 0.013303879 -0.030624256 -0.17064175 0.029979799
0.105090775 -0.042178612 -0.032766983 0.010598696 0.12047602 -0.0053163436 -0.14570972 -0.0044753314
0.028327743 -0.026206866 0.03259179 0.0504693 0.13963802 -0.042921945 -0.021548089 -0.05861301
0.03321109 -0.016670536 -0.028947253 -0.054033782 0.02661144 0.017232303 0.07958771 -0.10860268
-0.029759584 0.050199952 -0.009991344 -0.12888756 0.039181996 -0.039859466 0.051762193 -0.07035381
0.088774815 0.029248042 -0.030770782 -0.06894496 0.10312013 -0.032533903 0.07963362 -0.04538794
-0.064628355 0.1125546 0.051210552 -0.016089175 0.022127228 0.11229338 0.008179768 -0.029451767
-0.09794813 0.014660546 0.0035363007 -0.09124105 -0.078308515 -0.043713156 -0.058326308 -0.043077663
-0.017941337 0.09029582 0.008215881 -0.158242 -0.039472535 -0.07710523 -0.052965876 0.10843001
0.040552147 -0.121040866 -0.015515775 0.06356784 0.043647636 0.02339883 -0.049846806 0.14495577
0.064536646 0.06069231 0.033836894 0.024081113 -0.019708477 -0.038073815 -0.099654205 -0.078129634
0.019119816 -0.09046842 0.058432385 -0.12577315 0.016399374 -0.032068163 -0.05240197 -0.045281515
-0.08737747 -0.017530391 0.11547492 -0.052080177 -0.02521978 -0.019246794 0.028261922 -0.010012094
-0.059503786 0.02301103 0.06830457 -0.09339702 0.020432273 0.07563415 -0.052372273 -0.07241011
0.04117479 -0.046353407 0.06768558 -0.043262355 0.023367174 -0.014856138 -0.05827624 0.111413084
0.07620217 0.0057430947 -0.028859802 -0.0019936147 0.06393245 -0.08964082 0.0045140022 0.026977368
-0.0022079023 -0.062448785 -0.05345735 -0.018354781 -0.13215308 0.1167013 -0.026907999 0.0432618
0.08051368 -0.012392699 0.052188467 0.06336135 -0.08723563 0.0028641734 0.03328478 -0.08281422
0.033714864 0.067800045 -0.008312371 0.03888334 -0.024019584 0.1212092 -0.08470896 0.08438132
0.06152895 0.16596322 -0.10034428 -0.054391477 0.11199844 0.06957706 -0.0016775115 0.13494228
0.1199983 -0.019722272 0.15669721 -0.019164875 -0.1427094 0.022767192 -0.049601536 -0.062815316
-0.031686082 -0.062515415 0.041952185 0.021763554 0.014693972 -0.05558994 0.08699267 0.016925853
0.094624735 -0.02663897 -0.08220674 0.04037859 0.05794872 -0.075212464 -0.09380992 -0.0031331768
-0.10089939 0.012410762 0.04101193 0.014304817 0.0264663 -0.037623886 -0.015900662 0.083787695
-0.054512993 0.095535114 0.04734224 -0.040657975 0.112454236 0.058577206 0.027195198 -0.018954827
0.030002715 0.075045116 0.027986187 -0.05202366 0.0026616987 0.038590174 -0.066141404 -0.035295594
0.031763837 0.042246725 -0.069367066 -0.06984635 0.05293431 0.009872775 -0.011606891 0.090972245
0.04492861 0.12306678 -0.03213655 -0.16712682 0.053571537 -0.13610044 -0.0434044 0.022040868
-0.16911669 0.024485683 -0.07513833 -0.015982524 0.10522496 -0.0028743593 0.06007847 0.023013577
0.0538935 0.029134756 -0.016326912 -0.044601522 -0.03668178 0.016922474 0.021710344 0.033350844
00000000: f666 d23b 8f4e b73d bf67 01be 6ecf 9dbd
00000010: 716c cd3c 1695 b5bc 7a02 d7bc 5ed2 80bd
00000020: 15d4 40bd eff7 1b3d 0f19 72bd 2006 743d
00000030: c529 723c 539f e3bb e738 87bc 66b8 72bd
00000040: b48c 24bd 3553 aabd d8a0 12be 8083 b53d
00000050: 83f8 593c b8df fabc b6bc 2ebe 3298 f53c
00000060: d539 d73d 7bc3 2cbd ac36 06bd 27a6 2d3c
00000070: 22bc f63d b934 aebb ee34 15be cda5 92bb
00000080: 950f e83c c8af d6bc f87e 053d e6b8 4e3d
00000090: 45fd 0e3e ecce 2fbd 9e85 b0bc 3214 70bd
000000a0: 5a08 083d a690 88bc ca22 edbc 8752 5dbd
000000b0: 3c00 da3c c22a 8d3c e2fe a23d 156b debd
000000c0: 5fca f3bc 779e 4d3d bcb2 23bc 1afb 03be
000000d0: 4d7d 203d ae43 23bd 9804 543d a915 90bd
000000e0: 92cf b53d 9799 ef3c 0213 fcbc 0433 8dbd
000000f0: a630 d33d 4542 05bd f416 a33d b4e8 39bd
00000100: df5b 84bd 0783 e63d 28c2 513d 72cd 83bc
00000110: 2944 b53c 12fa e53d 6f04 063c d544 f1bc
00000120: 0799 c8bd c932 703c 48c1 673b 96dc babd
00000130: 3760 a0bd 910c 33bd 91e7 6ebd 3472 30bd
00000140: b6f9 92bc 04ed b83d e79b 063c 310a 22be
00000150: f4ad 21bd 59e9 9dbd bff2 58bd 8e10 de3d
00000160: 021a 263d 46e4 f7bd e135 7ebc db2f 823d
00000170: ddc7 323d e7ae bf3c 2a2c 4cbd 496f 143e
00000180: ca2b 843d 8098 783d 8e98 0a3d c145 c53c
00000190: ac73 a1bc 4af3 1bbd 8117 ccbd 6e02 a0bd
000001a0: 29a1 9c3c 8247 b9bd cc56 6f3d adca 00be
000001b0: fb57 863c e859 03bd 73a3 56bd 1c79 39bd
000001c0: f6f2 b2bd e59b 8fbc 1d7e ec3d 0652 55bd
000001d0: b699 cebc 74ab 9dbc 8c85 e73c c409 24bc
000001e0: 3eba 73bd a181 bc3c 44e3 8b3d f046 bfbd
000001f0: 9561 a73c 14e6 9a3d 4f84 56bd c04b 94bd
00000200: e6a6 283d 12dd 3dbd bd9e 8a3d de33 31bd
00000210: 846c bf3c 2967 73bc 11b3 6ebd 8b2c e43d
00000220: e20f 9c3d 9230 bc3b 646b ecbc 4ea7 02bb
00000230: 04ef 823d 9b95 b7bd 32ea 933b a4ff dc3c
00000240: 74b2 10bb 4cca 7fbd 18f6 5abd c45c 96bc
00000250: 2353 07be 1701 ef3d 2a6e dcbc 4933 313d
00000260: 5be4 a43d bf0a 4bbc 93c3 553d 98c3 813d
00000270: 98a8 b2bd dbb4 3b3b 9f55 083d 809a a9bd
00000280: 9918 0a3d c0da 8a3d 9c30 08bc 2344 1f3d
00000290: b8c4 c4bc 873c f83d e47b adbd 1dd0 ac3d
000002a0: c805 7c3d 43f2 293e 4d81 cdbd 99c9 5ebd
000002b0: 705f e53d 6b7e 8e3d f2df dbba 4f2e 0a3e
000002c0: abc1 f53d 9a90 a1bc 3c75 203e a8ff 9cbc
000002d0: 6a22 12be 4382 ba3c fb2a 4bbd 51a5 80bd
000002e0: 44c9 01bd 1508 80bd 0ed6 2b3d 7b49 b23c
000002f0: fcbe 703c 47b2 63bd 3729 b23d 16a8 8a3c
00000300: 9dca c13d f839 dabc 025c a8bd 0564 253d
00000310: a35b 6d3d fe08 9abd 6a1f c0bd fc55 4dbb
00000320: 57a4 cebd 8256 4b3c 20fc 273d c05e 6a3c
00000330: dbcf d83c 811b 1abd 1b42 82bc e298 ab3d
00000340: 0449 5fbd eaa7 c33d f0e9 413d fa88 26bd
00000350: 684e e63d a7ee 6f3d 77c8 de3c 2747 9bbc
00000360: 41c8 f53c 41b1 993d 4a43 e53c c316 55bd
00000370: e56f 2e3b bb10 1e3d 2575 87bd 1d92 10bd
00000380: cc1a 023d e70a 2d3d 5210 8ebd 9a0b 8fbd
00000390: a6d1 583d 6bc1 213c d42a 3ebc a84f ba3d
000003a0: 1007 383d 700a fc3d 9da1 03bd 4b23 2bbe
000003b0: d46d 5b3d ea5d 0bbe d0c8 31bd 0d8f b43c
000003c0: ed2c 2dbe 3396 c83c 20e2 99bd c8ed 82bc
000003d0: 2f80 d73d bf5f 3cbb d714 763d f886 bc3c
000003e0: 6ebf 5c3d 03ac ee3c 04c0 85bc 16b0 36bd
000003f0: a23f 16bd 00a1 8a3c e4d9 b13c e59a 083d

shared_layers.1.running_var f4 [256]
0.032184593 0.010803679 0.031432707 0.024960672 0.021133052 0.027958652 0.040969048 0.022910498
0.016789714 0.03999222 0.055922683 0.05056048 0.033972137 0.02745222 0.024294619 0.03731093
0.051077228 0.033365797 0.031446833 0.043217525 0.018150413 0.045903377 0.07138222 0.08643857
0.032888662 0.034571122 0.02093848 0.038153436 0.057959888 0.012450574 0.047240686 0.060036622
0.031956177 0.025037078 0.035425603 0.018649448 0.04206342 0.020060953 0.091437645 0.083408505
0.12826994 0.095206544 0.049526874 0.096259326 0.041237015 0.015495057 0.051499303 0.017461246
0.082851894 0.015108821 0.068411626 0.048205916 0.047148395 0.032123603 0.025141798 0.023892457
0.021647036 0.07425546 0.044124197 0.14418125 0.064524695 0.03033906 0.053792283 0.050758123
0.017592538 0.021102274 0.03131325 0.06665088 0.05392638 0.026459051 0.03946702 0.05493257
0.098974094 0.045966964 0.04075262 0.044804458 0.028363882 0.039125934 0.040187668 0.060463645
0.028075153 0.03206942 0.029249268 0.02280386 0.02359194 0.027034404 0.02499808 0.030135306
0.122173324 0.014059679 0.07462004 0.020300375 0.035788324 0.021657778 0.035561096 0.033836193
0.026470914 0.06460173 0.035609208 0.0211767 0.10375018 0.041649837 0.068308406 0.023577994
0.033220258 0.022425694 0.017781904 0.017385142 0.024435718 0.06627183 0.0831042 0.053303972
0.063919306 0.06668013 0.009327942 0.046029452 0.028515775 0.044146538 0.014844763 0.040951136
0.037936382 0.08440443 0.024879528 0.06598377 0.020645063 0.08290914 0.015635267 0.020430861
0.062174913 0.01991114 0.014079085 0.06815816 0.020280534 0.023697987 0.088680476 0.027723992
0.020325737 0.09914531 0.033788346 0.023441086 0.038166348 0.06033742 0.03399737 0.037305098
0.10596674 0.023661084 0.05632888 0.018040648 0.0131316865 0.026183855 0.097645335 0.036755458
0.046812188 0.019303506 0.04425942 0.06322455 0.035209697 0.020742582 0.04806804 0.06412148
0.059329964 0.06120508 0.031780995 0.111276545 0.020487564 0.08957584 0.022932481 0.026884006
0.022977088 0.024103612 0.10486307 0.03502939 0.01896569 0.087806635 0.02217375 0.04114253
0.06535281 0.023463467 0.033460237 0.024490643 0.067335576 0.031052332 0.035591356 0.109001495
0.030857157 0.027235106 0.01779842 0.025013842 0.046506554 0.0413987 0.067044124 0.013214468
0.031652924 0.028735885 0.023281697 0.03270866 0.047067143 0.060737133 0.040350247 0.049707033
0.024827847 0.012923495 0.04347293 0.047642443 0.025831962 0.14506353 0.022370256 0.02405649
0.05689818 0.10930393 0.0351598 0.024305336 0.01721947 0.044203844 0.06532605 0.028802037
0.07525672 0.038870573 0.018860191 0.024635235 0.050762087 0.018175779 0.0660217 0.03177469
0.025274482 0.021441424 0.14424133 0.02423221 0.037868798 0.053541485 0.04787678 0.060715903
0.024629964 0.022698285 0.01916362 0.04820676 0.07481933 0.013944587 0.045732275 0.014092387
0.064295694 0.022245556 0.052008357 0.031496327 0.1283257 0.011187994 0.024245646 0.057448763
0.12911983 0.018721933 0.025037374 0.04967404 0.019793388 0.025769185 0.016759617 0.03165231
00000000: fed3 033d ea01 313c 95bf 003d 537a cc3c
00000010: 391f ad3c 8b09 e53c 29cf 273d ccae bb3c
00000020: 958a 893c e2ce 233d 2f0f 653d 8218 4f3d
00000030: 5e26 0b3d 7ae3 e03c 8205 c73c 59d3 183d
00000040: 5b36 513d 93aa 083d 65ce 003d dc04 313d
00000050: 2db0 943c 2e05 3c3d d730 923d b406 b13d
00000060: 43b6 063d 739a 0d3d 2d87 ab3c c746 1c3d
00000070: 5967 6d3d 7efd 4b3c 737f 413d f6e8 753d
00000080: 7be4 023d 8f1a cd3c 701a 113d bac6 983c
00000090: b14a 2c3d de56 a43c a943 bb3d 14d2 aa3d
000000a0: 3259 033e a6fb c23d b1dc 4a3d 9c23 c53d
000000b0: 25e8 283d fbde 7d3c eff0 523d e30a 8f3c
000000c0: 41ae a93d fd8a 773c 651b 8c3d 9173 453d
000000d0: ad1e 413d 0a94 033d 2cf6 cd3c 1dba c33c
000000e0: 2055 b13c 3f13 983d 93bb 343d 40a4 133e
000000f0: 8625 843d 9f89 f83c 4c55 5c3d c0e7 4f3d
00000100: 3a1e 903c adde ac3c 5342 003d 4280 883d
00000110: e8e1 5c3d a7c0 d83c 2ca8 213d f900 613d
00000120: eeb2 ca3d db47 3c3d 38ec 263d e184 373d
00000130: 5f5b e83c 8442 203d d39b 243d baa8 773d
00000140: ddfd e53c 395b 033d 299c ef3c 29cf ba3c
00000150: e243 c13c 4177 dd3c c6c8 cc3c 51de f63c
00000160: 0236 fa3d 915a 663c 64d2 983d f94c a63c
00000170: c796 123d a76b b13c 83a8 113d d297 0a3d
00000180: 88d9 d83c e94d 843d f6da 113d c27a ad3c
00000190: f97a d43d 0599 2a3d 47e5 8b3d a326 c13c
000001a0: f711 083d 17b6 b73c 5bab 913c 496b 8e3c
000001b0: 6a2d c83c 86b9 873d 8932 aa3d 4455 5a3d
000001c0: 20e8 823d 988f 883d 39d4 183c 6189 3c3d
000001d0: ea99 e93c 00d3 343d 7337 733c 61bc 273d
000001e0: 2e63 1b3d 3bdc ac3d 27d0 cb3c 8022 873d
000001f0: d61f a93c 44cc a93d 8815 803c 9f5e a73c
00000200: 1fab 7e3d b01c a33c f6ab 663c 8196 8b3d
00000210: 5d23 a63c 4822 c23c 1c9e b53d 6d1d e33c
00000220: 2982 a63c b20c cb3d a665 0a3d 8507 c03c
00000230: 5154 1c3d 5f24 773d d440 0b3d 3bcd 183d
00000240: 1705 d93d e4d4 c13c 1db9 663d fbc9 933c
00000250: 4926 573c 867f d63c 47fa c73d e48c 163d
00000260: 23be 3f3d 6322 9e3c 5e49 353d df7b 813d
00000270: 0b38 103d 59ec a93c fee2 443d 1f52 833d
00000280: fa03 733d 2eb2 7a3d ca2c 023d f5e4 e33d
00000290: 89d5 a73c 8a73 b73d e6dc bb3c d93b dc3c
000002a0: 723a bc3c f074 c53c 73c2 d63d fa7a 0f3d
000002b0: ef5d 9b3c f7d3 b33d b9a5 b53c 1285 283d
000002c0: b2d7 853d 7536 c03c 9a0d 093d 9aa0 c83c
000002d0: 3ce7 893d 7661 fe3c 3ec8 113d 2d3c df3d
000002e0: 26c8 fc3c 281c df3c fecd 913c d4e9 cc3c
000002f0: a87d 3e3d af91 293d 6e4e 893d 7f81 583c
00000300: 7fa6 013d 8567 eb3c 42b9 be3c 84f9 053d
00000310: 7ac9 403d 80c7 783d 4d46 253d 9a99 4b3d
00000320: c563 cb3c 11bd 533c ac10 323d b924 433d
00000330: 8d9d d33c 898b 143e d441 b73c 1e12 c53c
00000340: 110e 693d bdda df3d b903 103d fc1b c73c
00000350: d90f 8d3c 170f 353d aac9 853d 40f2 eb3c
00000360: 3220 9a3d c036 1f3d b080 9a3c d5cf c93c
00000370: e8eb 4f3d 5fe5 943c 6336 873d 2d26 023d
00000380: 6e0c cf3c eda5 af3c 00b4 133e a182 c63c
00000390: 501c 1b3d 514e 5b3d 711a 443d 3db1 783d
000003a0: c7c4 c93c c1f1 b93c 06fd 9c3c 7474 453d
000003b0: e03a 993d d677 643c c451 3b3d c1e3 663c
000003c0: 76ad 833d 503c b63c b706 553d 4b02 013d
000003d0: d067 033e d94d 373c ce9e c63c 654f 6b3d
000003e0: fd37 043e bd5e 993c 2e1b cd3c 0277 4b3d
000003f0: be25 a23c e619 d33c 774b 893c daa5 013d

shared_layers.4.weight f4 [128, 256]
0.03186279 -0.03722846 0.0056202225 0.019872712 -0.005257862 0.014195965 -0.036636703 0.057663348
0.025606366 0.028120704 0.06949259 -0.036939252 0.051248785 -0.031935986 -0.048028894 0.015201591
-0.021209547 -0.03454033 0.062190402 0.010615447 -0.0026044887 -0.02682053 0.0030112588 -0.018509943
0.00017143287 -0.040590387 -0.034294713 0.03975644 0.063927226 -0.040796995 0.029291919 -0.03062375
-0.028816625 -0.0095362505 -0.006300979 -0.053240504 0.03521497 0.039085865 0.043744117 -0.02251512
0.022415727 -0.07730326 -0.014911972 0.07407434 -1.9500752e-05 -0.07156906 -0.0058716824 -0.014636099
-0.044813965 -0.02181796 0.051412504 -0.00080010574 0.068802394 -0.03098859 -0.02795168 0.008775127
-0.0607735 0.049870078 -0.039088514 -0.0031964236 0.0012057748 -0.040354382 0.06319728 -0.04405062
-0.03125986 -0.040307082 0.00089026615 -0.044648368 -0.035494007 0.013910964 -0.043484535 0.0039593233
-0.031914894 0.004135203 -0.081460744 0.061712895 0.036410186 -0.053680044 -0.021171141 0.05725543
0.06125498 0.00850932 0.03607938 0.059306256 -0.002627492 0.01489811 0.022826562 0.0014061476
0.042408094 -0.013030285 -0.015161917 -0.0053754556 -0.0344988 -0.0360184 -0.0063061 0.027564887
-0.032335475 0.035772376 0.036733154 -0.052318934 -0.042443175 -0.05442937 -0.0359521 0.029501067
0.039969657 -0.02548283 0.061908968 -0.014924818 0.0009864288 -0.058384277 0.02119605 0.06262219
-0.031115277 0.04972523 -0.07648639 0.051023718 -0.018351045 -0.050504174 0.06931422 0.009128107
0.018354591 -0.04616844 -0.02550511 0.04726089 0.016158607 -0.0520652 0.05804901 0.042493176
-0.03133928 -0.029760437 -0.024505718 0.049438458 -0.031397857 -0.029538888 0.0005378316 -0.020619063
0.023967804 -0.0026950995 0.015457788 -0.04209716 0.0122113265 0.05451573 -0.040160365 0.034223087
0.043497816 0.062324062 0.05857405 0.047043335 -0.015596941 0.00698667 0.059880648 -0.006114343
0.023914166 0.034068547 -0.02166171 0.09341156 -0.03542001 0.044802535 -0.012680661 0.050623406
0.0534074 -0.050876316 0.03045709 -0.07172644 -0.04961132 0.012757608 -0.034520127 0.018617598
-0.043349963 -0.030396082 -0.016338918 0.0067446595 0.038637817 0.028985234 0.075492024 -0.020132475
-0.03876948 0.047158394 -0.03610756 -0.09316661 -0.00036903715 0.018868761 -0.038857736 -0.044158574
0.049731795 -0.013076378 0.01481488 -0.001279528 0.031289447 0.03400111 0.04930125 -0.020634009
-0.014826459 0.055847365 0.012321111 -0.04632705 0.017150356 0.02473605 0.03736887 -0.015736878
-0.014718465 0.05290231 0.009515369 0.016832968 0.025597451 -0.034120273 0.055016343 -0.0075610625
-0.01156903 0.03241525 -0.012644498 -0.032141108 0.034406208 -0.07831745 -0.020057151 -0.05064382
-0.036515903 -0.055456806 -0.008418361 0.050497286 0.017890567 -0.034266915 0.033350788 -0.038812477
-0.03998327 0.082058266 0.0053319186 -0.0830514 0.035438303 0.04228701 0.03779872 0.0049654176
-0.0014954383 -0.029834703 0.030960845 0.0069145467 -0.07300529 -0.06460047 0.011887639 0.09324274
-0.045139182 -0.050869945 -0.028377375 -0.0009540597 0.031616308 0.034775287 -0.010151208 -0.035920594
-0.0019347351 -0.019507753 0.042840783 -0.02300716 -0.05414135 -0.0047462946 -0.060242813 -0.0076897847
00000000: 8f82 023d df7c 18bd d829 b83b 19cc a23c
00000010: 254a acbb 3196 683c 5e10 16bd 6730 6c3d
00000020: 71c4 d13c 645d e63c 2252 8e3d 9d4d 17bd
00000030: 3fea 513d 4fcf 02bd f2b9 44bd 1810 793c
00000040: a5bf adbc 297a 0dbd 5dbb 7e3d 69ec 2d3c
00000050: 12b0 2abb bab6 dbbc 8a58 453b 2aa2 97bc
00000060: a9c2 3339 1b42 26bd 9d78 0cbd a6d7 223d
00000070: 47ec 823d c01a 27bd 9bf5 ef3c a9de fabc
00000080: d810 ecbc ef3d 1cbc 7178 cebb b712 5abd
00000090: 933d 103d 8018 203d 082d 333d a171 b8bc
000000a0: 30a1 b73c 2c51 9ebd 5851 74bc 4ab4 973d
000000b0: 8c95 a3b7 cd92 92bd 3e67 c0bb 40cc 6fbc
000000c0: d98e 37bd 94bb b2bc eb95 523d 30be 51ba
000000d0: 45e8 8c3d c9db fdbc ecfa e4bc 8dc5 0f3c
000000e0: a2ed 78bd 9144 4c3d 471b 20bd 177b 51bb
000000f0: 170b 9e3a a34a 25bd 936d 813d 6c6e 34bd
00000100: 570a 00bd 0a19 25bd c060 693a 35e1 36bd
00000110: 2a62 11bd d0ea 633c d71c 32bd 36bd 813b
00000120: 31b9 02bd 9980 873b e4d4 a6bd a9c6 7c3d
00000130: d922 153d 9bdf 5bbd 1a6f adbc ab84 6a3d
00000140: 80e6 7a3d ad6a 0b3c f9c7 133d 1eeb 723d
00000150: 0032 2cbb 3417 743c c5fe ba3c 7c4e b83a
00000160: 1cb4 2d3d fa7c 55bc b069 78bc 9724 b0bb
00000170: 9d4e 0dbd 0888 13bd 67a3 cebb c2cf e13c
00000180: 3472 04bd 0e86 123d 8175 163d 614c 56bd
00000190: e5d8 2dbd 55f1 5ebd 8242 13bd 39ac f13c
000001a0: 39b7 233d 5ec1 d0bc 4294 7d3d 3987 74bc
000001b0: 0f4b 813a 5a24 6fbd 57a3 ad3c 1040 803d
000001c0: 77e5 febc afac 4b3d e5a4 9cbd 3ffe 503d
000001d0: ee54 96bc 77dd 4ebd 9df4 8d3d 0e8e 153c
000001e0: 5e5c 963c 1e1b 3dbd 18f0 d0bc a394 413d
000001f0: 0e5f 843c 5242 55bd ccc4 6d3d 530d 2e3d
00000200: 9e5d 00bd 29cc f3bc 37c0 c8bc fb7f 4a3d
00000210: 0a9b 00bd 8afb f1bc 45fd 0c3a 4fe9 a8bc
00000220: 2158 c43c 44a0 30bb a942 7d3c 126e 2cbd
00000230: 0412 483c e34b 5f3d 327f 24bd 822d 0c3d
00000240: c42a 323d 8447 7f3d 58eb 6f3d 83b0 403d
00000250: 508a 7fbc 70f0 e43b 6945 753d d45a c8bb
00000260: a4e7 c33c 768b 0b3d e673 b1bc 8f4e bf3d
00000270: 9314 11bd dd82 373d 8cc2 4fbc 7d5a 4f3d
00000280: b8c1 5a3d af63 50bd 2681 f93c 50e5 92bd
00000290: 3d35 4bbd 4905 513c fa64 0dbd ef83 983c
000002a0: bb8f 31bd 3401 f9bc 32d9 85bc 4e02 dd3b
000002b0: b042 1e3d 7172 ed3c 909b 9a3d dcec a4bc
000002c0: bfcc 1ebd 2929 413d 85e5 13bd 23ce bebd
000002d0: 547b c1b9 a992 9a3c 4a29 1fbd 9fdf 34bd
000002e0: 91b3 4b3d 4e3e 56bc 1cba 723c d6b5 a7ba
000002f0: 5d29 003d bf44 0b3d 1cf0 493d a708 a9bc
00000300: adea 72bc 35c0 643d 7cde 493c 6fc1 3dbd
00000310: e77e 8c3c 42a3 ca3c 1a10 193d a0ea 80bc
00000320: b725 71bc 18b0 583d 5ae6 1b3c 4be5 893c
00000330: bfb1 d13c b3c1 0bbd d158 613d cac2 f7bb
00000340: 078c 3dbc dac5 043d de2a 4fbc 65a6 03bd
00000350: 86ed 0c3d e664 a0bd e54e a4bc e56f 4fbd
00000360: b391 15bd ad26 63bd 2aed 09bc 3ed6 4e3d
00000370: 3d8f 923c 775b 0cbd d69a 083d d5f9 1ebd
00000380: 7fc5 23bd 2a0e a83d 60b7 ae3b da16 aabd
00000390: c127 113d 2535 2d3d d5d2 1a3d f1b4 a23b
000003a0: 9502 c4ba e867 f4bc 99a1 fd3c 6c93 e23b
000003b0: cc83 95bd 404d 84bd 5fc4 423c 0df6 be3d
000003c0: dde3 38bd 015d 50bd ab77 e8bc dd19 7aba
000003d0: 1a80 013d 8870 0e3d 4151 26bc 7921 13bd
000003e0: f096 fdba b9ce 9fbc d179 2f3d 8379 bcbc
000003f0: 52c3 5dbd ce86 9bbb 2bc1 76bd 97fa fbbb

shared_layers.4.bias f4 [128]
0.01082435 -0.051236406 0.03847665 -0.043884464 0.05782708 -0.051670194 0.014442835 0.055261925
0.039738625 0.051910874 -0.039089322 0.031997543 0.040969633 -0.058174457 -0.03731257 0.0315046
0.04625556 0.05936112 0.033229195 -0.056832794 -0.01958289 -0.032795407 0.05284366 0.060351945
-0.012111387 -0.0024176377 0.051536523 -0.05196434 0.003172637 -0.017137531 -0.030482281 0.0008709473
0.010778956 -0.06594872 0.055426333 0.029011471 0.013374998 0.05677377 0.027246263 0.009719176
-0.014036628 0.026442228 0.04430037 0.006985426 -0.053224865 -0.0330065 0.039015125 -0.03050534
0.0020416402 -0.0010905953 -0.054246947 0.046698693 -0.011868167 -0.051890932 -0.031000754 -0.04000163
-0.05477119 0.046848085 -0.046738934 0.062182028 -0.049921926 0.02295746 -0.012977449 -0.05086832
-0.040989332 0.014573903 0.06536765 -0.051062692 0.041369375 -0.001270904 0.036581427 0.028924214
0.04504138 0.052592468 -0.041678928 0.012325937 -0.008940466 0.022823986 -0.015573498 0.042248163
-0.052407905 0.04001811 -0.020740848 0.05789583 -0.035312176 -0.017212808 0.026352976 0.02088712
-0.011187521 -0.019431964 0.034208793 -0.044947397 -0.050743125 0.03449206 -0.029103896 0.0098390225
-0.04258395 -0.008351199 0.025800036 -0.0428983 -0.06648937 -0.035796937 -0.058329884 0.05629631
0.011061842 -0.0033734054 -0.017530605 0.048471823 0.042087834 -0.04746667 0.03313092 -0.01301339
0.048278596 0.03065381 0.016598321 0.048699275 0.030058604 -0.032199614 -0.0012655326 0.030718332
-0.04232929 0.06426589 0.026669303 -0.05865246 -0.04465251 -0.052165817 0.02573775 -0.041611616
00000000: 9d58 313c 44dd 51bd b199 1d3d 32c0 33bd
00000010: 17dc 6c3d 20a4 53bd a4a1 6c3c 545a 623d
00000020: f8c4 223d 7fa0 543d 201c 20bd db0f 033d
00000030: c6cf 273d 5748 6ebd 11d5 18bd f80a 013d
00000040: 7876 3d3d a524 733d 561b 083d 81c9 68bd
00000050: 4c6c a0bc 7a54 06bd 9872 583d 9a33 773d
00000060: d76e 46bc 3b71 1ebb f617 533d 8fd8 54bd
00000070: 04ec 4f3b 0264 8cbc fab5 f9bc 4950 643a
00000080: 389a 303c 1f10 87bd b906 633d 77a9 ed3c
00000090: cf22 5b3c 9d8b 683d 8e33 df3c 2e3d 1f3c
000000a0: e3f9 65bc 5f9d d83c 4e74 353d 00e6 e43b
000000b0: 5102 5abd d331 07bd 53ce 1f3d 56e6 f9bc
000000c0: 0acd 053b 4ef2 8eba 0c32 5ebd 2147 3f3d
000000d0: b372 42bc 968b 54bd 4bf5 fdbc c0d8 23bd
000000e0: c157 60bd c7e3 3f3d 5371 3fbd 95b2 7e3d
000000f0: ef7a 4cbd 4811 bc3c 5e9f 54bc 4d5b 50bd
00000100: 6ee4 27bd 61c7 6e3c 79df 853d 1d27 51bd
00000110: ef72 293d 7694 a6ba 68d6 153d 79f2 ec3c
00000120: 4f7d 383d 336b 573d 86b7 2abd baf2 493c
00000130: 087b 12bc 5ef9 ba3c fc27 7fbc 690c 2d3d
00000140: aca9 56bd 08ea 233d b6e8 a9bc 2e24 6d3d
00000150: 80a3 10bd e001 8dbc 32e2 d73c 771b ab3c
00000160: dd4b 37bc c82f 9fbc 851e 0c3d c31a 38bd
00000170: 06d8 4fbd 8c47 0d3d 4b6b eebc da33 213c
00000180: 826c 2ebd 78d3 08bc 995a d33c 21b6 2fbd
00000190: 942b 88bd cf9f 12bd 51eb 6ebd f696 663d
000001a0: ba3c 353c 5a14 5dbb 589c 8fbc 648a 463d
000001b0: 4b64 2c3d 696c 42bd 4ab4 073d 1d36 55bc
000001c0: c7bf 453d b31d fb3c 34f9 873c e478 473d
000001d0: 763d f63c bee3 03bd 3ae0 a5ba 03a5 fb3c
000001e0: 7a61 2dbd d69d 833d 9579 da3c 903d 70bd
000001f0: 8de5 36bd d3ab 55bd f9d7 d23c f170 2abd

shared_layers.5.weight f4 [128]
0.9767539 1.0078996 0.9603427 0.9998018 1.0268345 1.0852069 1.00325 1.0152736
0.9958235 1.0185212 0.9555149 1.0218699 0.9741639 0.98736084 0.9771956 0.9742587
1.0429782 1.0700165 0.9551104 1.0133971 0.960857 0.992766 0.9847366 0.9971133
0.97762823 1.013464 0.97132194 0.9892536 0.99648523 1.0153524 0.9988066 0.99412656
1.0139624 0.9886097 0.9861774 0.9402077 1.0466162 0.98590374 0.98655194 0.9852149
1.0310423 0.98672616 0.992541 0.98193777 1.003167 1.011624 1.0017543 1.0459841
1.0044647 0.97294766 0.9670578 0.98779434 1.0141089 1.0260112 0.989192 1.0130037
1.0063052 1.0612195 1.0147331 0.97245365 0.98483616 0.9945193 1.0270189 1.002298
1.0002587 1.0171162 0.98621696 1.0246056 1.0242834 1.0293536 0.97200084 0.95463943
0.97084856 0.99602973 0.99752903 0.9962437 0.9821797 1.0302114 0.96736544 0.96177727
0.98002845 0.9823469 0.99885863 1.0338148 1.0097276 1.0197241 0.98901904 0.97115767
0.9922729 0.9670715 1.0037185 0.97849613 0.9285461 1.0012712 1.0197055 0.9559396
1.0212061 1.031672 0.99045473 0.966026 1.0056913 1.016937 1.02898 1.0329862
1.0063108 1.002544 1.0192991 1.0097139 1.0290226 0.95419896 1.025714 1.0442326
0.96558285 0.9572693 0.9544994 1.0644486 1.0444187 1.0004581 0.96540487 1.0194737
1.0480012 1.0775659 1.0225585 1.0163734 1.032307 0.98036516 1.0124556 0.96844083
00000000: 8b0c 7a3f db02 813f 05d9 753f 03f3 7f3f
00000010: 506f 833f 0fe8 8a3f 7f6a 803f 7cf4 813f
00000020: 4aee 7e3f e75e 823f a09c 743f a2cc 823f
00000030: ce62 793f aec3 7c3f 7e29 7a3f 0569 793f
00000040: 4f80 853f 4df6 883f 1d82 743f ffb6 813f
00000050: b9fa 753f ea25 7e3f b317 7c3f d142 7f3f
00000060: d845 7a3f 30b9 813f 8ea8 783f b93f 7d3f
00000070: a819 7f3f 11f7 813f cab1 7f3f 147f 7e3f
00000080: 85c9 813f 8615 7d3f 1f76 7c3f 74b1 703f
00000090: 85f7 853f 3064 7c3f ab8e 7c3f 0b37 7c3f
000000a0: 32f9 833f 169a 7c3f 2b17 7e3f 4660 7b3f
000000b0: c767 803f e57c 813f 7c39 803f cfe2 853f
000000c0: 4d92 803f 1913 793f 1a91 773f 17e0 7c3f
000000d0: 52ce 813f 5654 833f b03b 7d3f 1baa 813f
000000e0: 9cce 803f 0ad6 873f c6e2 813f b9f2 783f
000000f0: 391e 7c3f d198 7e3f 5b75 833f 4d4b 803f
00000100: 7a08 803f dd30 823f b778 7c3f 4726 833f
00000110: b81b 833f dcc1 833f 0cd5 783f 4063 743f
00000120: 8889 783f cefb 7e3f 105e 7f3f d409 7f3f
00000130: 2170 7b3f f8dd 833f 43a5 773f 0937 763f
00000140: 25e3 7a3f 167b 7b3f 33b5 7f3f 0b54 843f
00000150: c13e 813f 5286 823f 5a30 7d3f ca9d 783f
00000160: 9905 7e3f ff91 773f d979 803f b97e 7a3f
00000170: 32b5 6d3f a829 803f b685 823f 75b8 743f
00000180: e2b6 823f d40d 843f 718e 7d3f 7b4d 773f
00000190: 7eba 803f fe2a 823f 9eb5 833f e438 843f
000001a0: cbce 803f 5d53 803f 6578 823f 4e3e 813f
000001b0: 03b7 833f 6246 743f 994a 833f 6aa9 853f
000001c0: 7030 773f 9a0f 753f 135a 743f da3f 883f
000001d0: 83af 853f 030f 803f c624 773f 1d7e 823f
000001e0: e724 863f aeed 893f 32e3 823f 8618 823f
000001f0: a322 843f 36f9 7a3f 2598 813f bdeb 773f
